grua/Grua.pth (torch, 20522 bytes, 6 tensors)

layers.0.weight f4 [64, 2]
000000 d7 ba 42 be e0 3b 07 3f 6d 8b 91 bd 84 26 e0 be
       -0.19016586 0.52825737 -0.071066715 -0.43779385
000010 f0 b5 0c bf 22 3b bb 3e fb cb b4 be 30 45 12 3d
       -0.54965115 0.36568552 -0.35311875 0.035710514
000020 22 d6 bf be 15 5c 8b 3d 57 f0 3a 3f d1 31 de bd
       -0.37468058 0.06804673 0.7302298 -0.108493455
000030 cb 9e 37 bf 14 a1 01 bf ff c7 80 3e 5e a1 3e 3f
       -0.71726674 -0.5063641 0.25152585 0.74464977
000040 3d 72 e1 be a6 77 d6 be 2d 68 52 bd 46 4c f2 be
       -0.4403247 -0.4188816 -0.05136888 -0.47323817
000050 d5 f8 8f bd af c8 4b 3f 93 8d d2 be a2 e8 be bd
       -0.07029883 0.79603094 -0.41123638 -0.09321715
000060 0f aa 04 3f 95 8e 2a be ee cc 0d 3f 0a 11 67 3e
       0.5182199 -0.16655953 0.5539082 0.22565094
000070 e6 a1 32 bf 8d f8 39 3c 2c a6 6b 3e f4 ee f1 3c
       -0.6977829 0.011350763 0.23012608 0.029532887
000080 b8 70 0c bf 81 70 91 3d bb af 66 be 02 d9 86 3e
       -0.54859495 0.071015365 -0.22527973 0.2633744
000090 c2 ec 80 3e 4c 23 20 3f ed 41 6b be 98 f3 34 3f
       0.25180632 0.6255386 -0.22974367 0.70684195
0000a0 c6 65 08 3f 31 da 25 3f 5d d5 c9 be 2c 52 33 3f
       0.53280294 0.6478606 -0.39420596 0.7004726
0000b0 b7 d3 25 3f c3 6e 1e bf ff 06 f5 3e 2b 70 7b 3e
       0.64776176 -0.6188776 0.478569 0.24554507
0000c0 f5 29 93 be 27 e7 56 bf 7c 14 1f 3f 3a 9f 15 bf
       -0.28742948 -0.8394646 0.6214063 -0.58446085
0000d0 f6 fb ca 3e 07 5d b1 3e c7 63 57 3e 8b ad b9 3e
       0.39645356 0.34641287 0.21034156 0.36265215
0000e0 26 b1 00 3f fc 86 c2 3e f4 06 64 3e ca 6a 21 bf
       0.5027031 0.3799361 0.22268277 -0.6305357
0000f0 0c ee ee 3e 73 b0 73 be 12 f9 c2 3e 1c e5 3d bf
       0.4666599 -0.23797779 0.3808065 -0.7417772
000100 74 73 f2 3e a3 c9 80 3e 04 ba d8 be 62 a1 0f bf
       0.4735371 0.25153837 -0.4232942 -0.56105626
000110 c6 a3 c7 3a 8c d4 e0 3e aa f6 56 3e 02 39 cf bc
       0.0015231303 0.4391216 0.20992532 -0.025295738
000120 50 9a 46 be 7f 0b b7 be de 24 06 bf a2 07 e8 3e
       -0.19394803 -0.35750958 -0.52400005 0.45318323
000130 80 ff 8a bc b6 ad b9 be 0a d2 bd 3e 73 2e 45 3f
       -0.016967535 -0.36265343 0.3707431 0.77024
000140 3e 70 28 bf 6b 41 fb 3e 99 0c 8d 3e 36 dd ed 3e
       -0.6579627 0.49073347 0.27548674 0.46457833
000150 92 af 55 3f 49 dc 84 3e fc fe a6 be 6a c1 cd 3e
       0.83471024 0.25949314 -0.32616413 0.40186626
000160 ea bc 76 3e 02 45 aa bd ec a0 36 bf 83 39 a1 be
       0.24095502 -0.083139434 -0.713393 -0.3148919
000170 cc 6f bf 3d 75 d9 1c bf 80 7e 9a bd 07 7d 10 bf
       0.093474954 -0.61269313 -0.07543659 -0.56440777
000180 9c b5 0d 3f 1d 76 2b be 20 7d 94 3d 55 f5 cd be
       0.5535524 -0.16744275 0.07250428 -0.40226236
000190 e1 ef 98 be 69 a0 b9 3e f1 3d f1 3e da 99 e1 bd
       -0.29870513 0.36255196 0.4711757 -0.11015673
0001a0 f0 f7 fa be cc fd b2 3e fb 6f 18 3f c0 9a 41 3e
       -0.49017286 0.34959257 0.5954587 0.18906689
0001b0 6b 07 a3 3e b5 90 bb 3e fd 9c a4 3e c0 32 3e 3f
       0.31841597 0.3663384 0.32151023 0.7429619
0001c0 d8 61 2b 3f 2f e4 f0 be 2b dd e0 3e 0a 68 2e 3f
       0.6694617 -0.4704909 0.43918738 0.681275
0001d0 a8 3d de be 87 52 1b bf 21 55 05 bf f7 21 64 be
       -0.43406415 -0.606728 -0.5208302 -0.22278582
0001e0 3c 91 3f 3f 08 02 a4 bd 1c 23 d3 be 4e 35 ce 3e
       0.74830985 -0.080082 -0.41237724 0.40275043
0001f0 76 05 2d 3f b7 60 85 be 25 11 06 3f 24 b7 aa 3e
       0.6758646 -0.2605035 0.5236991 0.3334285

layers.0.bias f4 [64]
000000 17 83 59 bd 25 42 0e bf a8 91 29 3f fa e8 15 bf
       -0.053103533 -0.5556968 0.6623788 -0.5855862
000010 99 2e eb be 93 39 1b 3f e4 a8 d2 3e df 87 af be
       -0.4593399 0.60634726 0.41144478 -0.3428335
000020 fb d4 48 3f 95 90 21 3f e5 75 7e be 59 a6 1c be
       0.7844998 0.6311124 -0.2484966 -0.15297832
000030 e5 37 f5 be ea ce c6 bd aa fd c0 be 5d 7f cf be
       -0.47894207 -0.097074345 -0.3769353 -0.40526858
000040 4b 34 f6 be 37 64 5f 3e 23 9e 1c 3f 9c 93 3d 3f
       -0.4808677 0.21815573 0.611788 0.7405336
000050 77 40 27 bf 27 82 cd be 44 98 c9 3e c3 5c cf 3e
       -0.6533274 -0.4013836 0.39373982 0.4050046
000060 c7 f3 cc bd cf 4f 60 be 49 fa 07 bf da c9 7a 3e
       -0.10007434 -0.21905445 -0.5311628 0.24491063
000070 51 33 2d 3c 0d 2e 48 3f a0 ab c8 3e 46 a5 46 3c
       0.010571317 0.7819527 0.3919344 0.012124365
000080 4c 6c 93 3e d6 0e 67 3e c2 7d e1 3e 1c 9a 2a 3f
       0.2879356 0.22564253 0.44041258 0.666414
000090 c2 23 1c 3f 20 e3 7c bd 49 d0 02 bf f1 f7 ad 3e
       0.6099206 -0.06174004 -0.5109907 0.33978227
0000a0 b2 be 18 3f 95 18 14 3e 1b 2e b7 bc b8 1a 0d 3e
       0.5966598 0.14462502 -0.022360852 0.13779724
0000b0 e5 ed e5 3e e5 f3 0c bf 88 15 77 3e 58 e9 18 3f
       0.44908062 -0.55059654 0.24129307 0.59731054
0000c0 df c1 f4 be 92 5c 21 3e a1 4f 8b bd 6c f9 d2 be
       -0.47804162 0.15757969 -0.068022974 -0.4120592
0000d0 72 dd eb 3e 52 6b 23 bf 7d 55 4e 3f 77 48 d3 bd
       0.46067387 -0.6383563 0.80599195 -0.10316556
0000e0 c1 49 2f be 8a c3 d5 3c 64 2c fe 3e 8c 05 aa 3d
       -0.17117979 0.026094217 0.49643242 0.08301839
0000f0 0f 79 1d bf 25 f2 20 bf 81 89 09 3f 35 b0 c7 bd
       -0.61512846 -0.62869483 0.5372544 -0.09750406

layers.2.weight f4 [64, 64]
000000 2a 5d 20 3d e5 27 0a 3e 38 f3 89 3c 51 c6 e7 3e
       0.03915135 0.13491781 0.016839609 0.4526849
000010 b4 28 74 3e 4e 2e 92 3d 4f 61 1a be e3 b2 81 3d
       0.23843652 0.07137738 -0.15076183 0.06332948
000020 b6 9a 19 be 96 35 b6 bd c2 6c c8 3d 38 8c 3f 3e
       -0.15000424 -0.088969395 0.09786369 0.18705833
000030 06 7d bc bd 3a db a9 bd ec 8e 15 3d e4 c7 69 3d
       -0.09203534 -0.08293767 0.036513254 0.057075396
000040 38 82 86 3e 9f c5 94 3d 98 78 f0 3d f5 14 b7 bc
       0.26271224 0.07264256 0.117417514 -0.02234886
000050 aa e8 a3 3d c8 8d 32 3e e0 6f 63 3d 02 0e a8 3d
       0.080033615 0.17436898 0.055526614 0.08205797
000060 df db fc 3d 95 f9 05 3d 60 17 9e 3d e8 33 65 bb
       0.123466246 0.032708723 0.07719302 -0.0034973565
000070 7e 47 f1 3d ca b1 e7 3b 47 d4 d8 3d 1a 0c 9d 3d
       0.11781214 0.0070707547 0.10587364 0.07668324
000080 34 67 2f 3e 05 bf 87 3e 33 a7 8f 3d b5 fa 96 bd
       0.17129213 0.26512924 0.070143126 -0.07372037
000090 39 ac 25 be 3f 1b 44 3e 7a 5f 2d 3e 52 56 d4 bb
       -0.16178979 0.19151019 0.16930953 -0.0064800167
0000a0 da 10 ea bc 2d 30 87 3d 7f 22 c8 3d 35 a3 02 bb
       -0.028572489 0.06600986 0.097722046 -0.0019933705
0000b0 5e ad b2 3c fc 08 20 3e 4b 5d bf 3d 0c 93 bf bd
       0.021811184 0.15628427 0.09343966 -0.09354219
0000c0 db 68 0e bd 19 47 b3 3d 51 75 46 3e 73 d5 08 3c
       -0.034767967 0.08753795 0.1938069 0.0083516715
0000d0 fd 6c de 3c 3e e5 d5 bd a2 6e f2 3c fb b8 fa 3d
       0.027151579 -0.10444115 0.02959377 0.122423135
0000e0 98 36 4e 3a cc e8 38 3e 13 68 03 be 78 71 b8 3d
       0.00078664115 0.18057555 -0.1283267 0.090060174
0000f0 48 fc 03 3d 26 4f 83 3e bf 71 a0 3d 03 6c 59 3d
       0.032223016 0.25646323 0.07834195 0.053081524
000100 33 ae 83 3c 5b 92 ae bd f2 3d 34 3e 00 90 ae be
       0.016074276 -0.08524009 0.17601755 -0.34094238
000110 7c f6 56 be 96 0f 25 be cc a8 ec 3d a3 55 b6 3e
       -0.20992464 -0.16119227 0.11555633 0.3561221
000120 a4 06 20 3e 57 ea 67 3e f1 f3 48 bd df f2 2d bb
       0.15627533 0.22647987 -0.049060766 -0.0026542468
000130 53 b8 13 be 3e 20 4d be aa 69 81 3d a0 79 50 bc
       -0.14425783 -0.2003183 0.06318982 -0.01272431
000140 d2 0a 67 bd e2 b0 ed bc 92 10 79 3c 1e 04 63 3e
       -0.056406803 -0.029015008 0.015201705 0.2216954
000150 ee 91 cf 3d 96 2d ff bd c1 43 b3 bd ac d2 79 bd
       0.10135256 -0.12459867 -0.087531574 -0.060991928
000160 bd 7e 68 3d ca eb 85 bd 42 a8 a0 bd 2b a1 2c be
       0.056761492 -0.06539114 -0.07844593 -0.16858356
000170 b0 d0 da 3c 43 1f 8a bd 81 ff a0 3d e8 7e e5 bd
       0.026710838 -0.06744244 0.078612335 -0.11205846
000180 c3 5a d3 bd b7 50 31 3e f2 8d 71 3d e6 95 61 3e
       -0.10320046 0.17315947 0.05897326 0.22029838
000190 e8 32 71 3e bd d5 17 be 61 9b 8b bd 32 fd d8 bd
       0.23554575 -0.14827628 -0.068167455 -0.10595168
0001a0 f9 42 9d 3d b5 ce 42 be 7a 64 0a be da 10 16 bc
       0.0767879 -0.19024165 -0.13514891 -0.009159291
0001b0 64 84 f5 bd 64 7f 54 bb 44 76 24 3e c1 0c 25 3e
       -0.11988142 -0.0032424564 0.1606074 0.16118146
0001c0 15 de 77 be d6 41 30 3e 0a b8 a0 bc 27 94 a2 bd
       -0.24205811 0.17212614 -0.019619007 -0.07938414
0001d0 7b 4e 41 3e c4 83 67 3d 7f dc 89 3c ab 81 57 3b
       0.18877594 0.056522146 0.016828774 0.0032883685
0001e0 c4 c0 d1 bb d8 cb 0b be 77 a7 a8 3d d0 c7 70 be
       -0.0064011533 -0.13651979 0.082350664 -0.23513722
0001f0 bd b4 88 be 81 21 99 be ea 67 99 bd c7 8b 30 bd
       -0.26700392 -0.29908374 -0.07490523 -0.043102052
000200 4e c3 81 bd 47 76 f2 bd c5 87 b2 3d 2a 0d a5 3e
       -0.063360795 -0.11838966 0.08717302 0.32236606
000210 28 2b b4 3d fb 24 cc 3d b1 3e dc bc e9 5c 3a be
       0.08797294 0.09967991 -0.026885362 -0.18199505
000220 fd 0d 9b 3d 80 da c3 bd c5 cd e7 3d 69 3a 04 be
       0.075710274 -0.0956316 0.11318544 -0.12912907
000230 20 97 d2 3d de 01 89 3d ea 92 99 bc 20 98 75 bc
       0.10282731 0.06689809 -0.018746812 -0.014989883
000240 1f 8e e1 3d c0 8f 2e 3d 16 14 42 bc f8 4d 0d 3d
       0.110134356 0.04261756 -0.011845609 0.034498185
000250 c0 42 68 3d 19 81 c3 bd 0e 6c a9 bd d6 96 8d 3c
       0.056704283 -0.09546108 -0.08272563 0.017283838
000260 ab ba 82 bd d8 f6 0b bd 48 00 47 3d d2 a8 5b 3c
       -0.0638326 -0.034170955 0.048584253 0.013406949
000270 45 56 47 3d 92 10 eb 3d 24 7c 50 3b ff 8a 3e bc
       0.048666257 0.1147777 0.0031812275 -0.011629819
000280 fe e9 e8 bd 08 23 dd 3d a2 53 63 bc da 50 1b bd
       -0.113727555 0.10797697 -0.01387492 -0.037918903
000290 f8 00 43 bd ce 73 70 3d 21 58 0f bd 9c 46 a7 3d
       -0.047608346 0.05870419 -0.034996156 0.081677645
0002a0 7a 96 0a 3e ea 3f 41 3c e5 73 ef bd c0 7e 89 3d
       0.13533965 0.011795023 -0.11692027 0.06713629
0002b0 9c 20 4f 3c 75 f9 85 3d ce cc 72 bc 93 38 e2 3d
       0.012642052 0.06541721 -0.014819337 0.11045947
0002c0 c2 c9 15 3d 16 d2 86 bb 9c 4e e4 bb f8 dc 54 3d
       0.036569364 -0.0041143997 -0.006967379 0.051968545
0002d0 4b e8 d9 bc ae 77 f5 bd 07 05 d4 bd 33 ec 1c bc
       -0.026600024 -0.11985718 -0.103525214 -0.009577799
0002e0 31 bb 26 3c f3 71 3a be a0 f2 89 bd 8b 32 c9 3d
       0.010176466 -0.1820753 -0.0673573 0.098240934
0002f0 b4 a6 4e bd 85 a3 89 3d 2e fd a1 bd d9 d0 23 be
       -0.05045195 0.06720642 -0.07909618 -0.15997638
000300 0f 9b 83 3d a8 87 1f be da dc f4 3d 29 d7 a8 3e
       0.064260595 -0.15579093 0.119561866 0.32976654
000310 9e d8 ec 3d 6e 19 2a bd b3 e4 3a 3e c9 6d 3e bd
       0.11564754 -0.041528158 0.18251304 -0.046491418
000320 ca 2f 0e bd 04 58 82 b8 64 e9 b8 bd 7b 67 b0 bd
       -0.034713544 -6.215277e-05 -0.09028891 -0.08613487
000330 e3 e4 1c be 71 6c 22 3e 66 9f 68 3d b0 fe e9 3c
       -0.15321688 0.1586168 0.05679264 0.028563827
000340 a4 b1 c5 3c 05 89 87 bd ab c0 86 3d 46 7e 64 3d
       0.024132557 -0.06617931 0.06579717 0.055784486
000350 d0 5d 4b bd 0c d4 c2 3d 5b 7d 96 3d 9b 6f 16 be
       -0.049650013 0.09513101 0.073481284 -0.14691012
000360 d1 f4 b4 3c ea 42 56 3d 24 97 8f bd 4e 31 ca 3d
       0.022089394 0.052309908 -0.0701125 0.098726854
000370 d5 6d 11 be 70 0c 39 3d fb a1 8b 3d f2 89 68 bc
       -0.14202054 0.045177877 0.06818005 -0.014193045
000380 6d ed e6 3b 37 a9 85 3d 4a b1 39 3b ae 1c d2 bd
       0.0070473463 0.06526416 0.0028334432 -0.102593765
000390 ed 18 eb 3c 37 5e 60 3d a1 f1 01 3d 3b 7b e7 3d
       0.028698409 0.05477735 0.031724576 0.11302801
0003a0 01 43 e1 3b ef db 29 bd 94 bb ea bd c9 13 18 3d
       0.0068744426 -0.04146951 -0.11461559 0.037128244
0003b0 72 b7 8a 3d 61 96 15 3e d1 d7 ac 3c 0b da d5 bd
       0.06773271 0.14608146 0.021099003 -0.10441979
0003c0 36 01 b5 3d 51 20 13 be 5c 13 04 3d 20 62 22 be
       0.088381216 -0.14367796 0.032245025 -0.15857744
0003d0 6a 31 b7 3c b0 a2 13 3d 1a d8 06 be b6 b5 51 3d
       0.02236243 0.036043823 -0.13168374 0.051198684
0003e0 03 2a c1 bd ab 54 ce 3d 76 6b 9a bc 10 ad d3 3d
       -0.09431841 0.10074743 -0.01885007 0.103357434
0003f0 4c b4 04 3c c2 45 9c bc 59 80 19 bd c8 7d da 3c
       0.008099627 -0.019076232 -0.037475917 0.026671305

layers.2.bias f4 [64]
000000 4f 75 d4 3d 28 94 bf 3c 3e 3c e1 3c 70 bf 90 3d
       0.10373937 0.023386076 0.027494546 0.07067764
000010 eb de 16 3c 9e 65 13 3d eb 76 81 3d 67 e8 89 3d
       0.009208421 0.03598558 0.0632151 0.0673378
000020 24 40 6c bd a3 8a b6 3d 55 d6 db 3d fd 75 10 3d
       -0.057678357 0.089131616 0.1073424 0.035268772
000030 80 60 81 3d d4 ad 8b 3d 82 b4 63 3e 80 1b 8a 3b
       0.06317234 0.068202645 0.22236827 0.004214704
000040 9e a0 27 be 7e 5c 68 3e 80 02 cc bd 88 44 05 be
       -0.16369864 0.22691533 -0.09961414 -0.13014424
000050 1a 69 d2 3d b8 8d aa bc 29 20 bd 3b 1d 9f 46 3e
       0.10273953 -0.02081953 0.005771656 0.19396634
000060 b4 3a 00 bd 50 19 af 3d b8 d2 80 bd 41 a0 20 3c
       -0.031305984 0.0854975 -0.062901914 0.0098038325
000070 30 47 42 bd b1 62 65 3d 22 82 a1 bd 67 bf 8f be
       -0.04743117 0.056002323 -0.07886149 -0.28075716
000080 28 92 d8 3d 48 6e 1a bd 68 9a 3c 3d e4 29 27 bd
       0.10574752 -0.03770283 0.04604569 -0.040811434
000090 f2 0e 94 bd 5a 56 02 3e 0c b9 42 bb 24 bc 3b bd
       -0.07229413 0.12728253 -0.0029712347 -0.04583372
0000a0 d5 83 4e 3c a8 26 ef bd 90 da a7 bd 6a 7c 2d 3e
       0.012604673 -0.11677295 -0.08195984 0.16941991
0000b0 72 cb 11 3e bc 79 c2 3d 44 aa c9 3d 5b 3a 91 bd
       0.14237764 0.09495875 0.09846929 -0.070912085
0000c0 19 f0 66 bd 84 a0 e5 3c 4c 0e 98 3d dc 96 9b 3d
       -0.05638132 0.028030641 0.07424602 0.075971335
0000d0 00 22 ad 3d d2 4c 2b be 34 bd a6 3c 3b 1f 2a 3e
       0.084537506 -0.16728523 0.020353891 0.16613476
0000e0 7d ff 54 3d ef 35 1d 3e 91 44 02 bd dd 8b 46 bd
       0.052001465 0.15352605 -0.03180367 -0.048473228
0000f0 41 cf b3 bd 87 03 1f 3c cb 49 c8 3d 0e 38 b0 bd
       -0.08779765 0.009705431 0.097797 -0.086044416

layers.4.weight f4 [3, 64]
000000 1b d2 33 3e 95 2a d5 3c f6 88 c2 3c fe 5e 53 3d
       0.17560618 0.026021281 0.023746949 0.051604263
000010 fe 5b 05 be 78 0e 48 3e 19 d5 c3 bd d6 5a 9c 3d
       -0.13023373 0.1953677 -0.095621295 0.07634513
000020 1d 5d 6d 3d 0a 51 07 be 5f b2 7f 3e ea f5 0b be
       0.057950128 -0.13214508 0.24970387 -0.13668028
000030 16 b8 aa 3c bf f6 f8 bc ce 9b 58 be 8a 1b a3 bd
       0.020839732 -0.030391095 -0.21153185 -0.07964237
000040 6b af 28 3b dc 91 a6 3d 2f 90 8d bc c8 c3 27 3e
       0.0025739323 0.08133289 -0.017280666 0.16383278
000050 d7 6d 3f be bb b1 02 3d d9 bd 79 3d 24 9a 36 3e
       -0.18694244 0.03190778 0.06097207 0.17832237
000060 d7 33 09 3e 50 8b 67 be 32 c5 bc 3d 23 93 80 3d
       0.13398682 -0.22611737 0.092172995 0.06278064
000070 ea 77 74 3d 1f f5 98 bd 21 d3 19 3e cc 2a bc bb
       0.05968467 -0.07468628 0.15021946 -0.0057424065
000080 31 ec 90 3d 28 a1 cc bd 0f 5d 10 bd 96 c1 97 bd
       0.070763 -0.099916756 -0.035244998 -0.074099705
000090 00 87 70 bd 36 95 90 be ac 5b e0 bd 0e 86 8d 3d
       -0.058722496 -0.2823884 -0.10954985 0.069103345
0000a0 e0 35 a6 3d 20 5e a6 bd e0 9e 76 3c d8 0e 3b 3c
       0.081157446 -0.08123422 0.015052527 0.011417113
0000b0 1d 50 99 bd c6 bc 25 3e d5 60 c8 3b 77 c0 9d 3d
       -0.074859835 0.16185293 0.006115059 0.077027254
0000c0 01 ac 74 be 1d 45 10 be da 51 29 3d e1 68 1f 3e
       -0.2389374 -0.14088865 0.041337825 0.15567352
0000d0 98 08 ad bc 78 1e 5b 3e 8a 01 0a 3d bc c5 00 be
       -0.021122262 0.21398342 0.033692874 -0.1257543
0000e0 87 b8 e1 3d 46 5a 98 bd ea 1e 49 3c 29 6b 66 3d
       0.11021524 -0.07439093 0.012275437 0.05625454
0000f0 da 95 8a bd 62 5b 03 bd 19 94 f2 bd d5 35 45 be
       -0.06766863 -0.03206957 -0.11844654 -0.19258817
000100 6b b5 09 be dd 5a 3d bc ae 93 11 3e 97 e6 b4 3d
       -0.13448112 -0.011557308 0.14216492 0.08833044
000110 34 a1 ff 3d ff 56 53 be 88 3e e5 3c ef ba a5 3d
       0.12481919 -0.20638655 0.027983919 0.080922954
000120 81 fc 2d 3e 96 f6 89 bd bd 96 6d be 77 39 02 be
       0.16990854 -0.06736486 -0.23202033 -0.12717234
000130 96 c1 07 3e 34 63 27 be c4 2e 0e 3e ce 98 8c bd
       0.13257441 -0.16346437 0.13885027 -0.06865083
000140 65 42 06 be 3c 32 25 3d e6 7a 93 bd 18 5b 61 bc
       -0.13111265 0.04033111 -0.072011754 -0.013754629
000150 aa 6d 93 bc 3c 89 8a 3d ed 6a 28 be 6c 3f 48 be
       -0.017996628 0.06764457 -0.16447039 -0.19555444
000160 4d 27 15 be 62 c3 e1 bc 52 d6 7a 3d d2 a4 af bd
       -0.14565773 -0.027558986 0.061239548 -0.08576359
000170 56 be 22 3d d7 4c 8a 3d 75 e4 c4 3d 52 01 28 bd
       0.0397323 0.06752937 0.09613887 -0.041016884
000180 7a 35 ed 3d c8 70 12 bd b9 58 d0 3d c0 ae e4 3b
       0.115824655 -0.035752088 0.101731725 0.0069788396
000190 0c 16 d1 3d ca d6 b4 3e 44 b5 26 3d e0 d3 b3 bd
       0.10209283 0.3532012 0.040700212 -0.08780646
0001a0 d5 09 e2 bd 3d fa f1 bd 68 1e b0 3d 83 63 f5 bd
       -0.110370316 -0.11815307 0.085995495 -0.11981871
0001b0 43 b7 dc 3d a5 c9 01 3d 8c 9d da 3d 0b 34 ae 3d
       0.10777142 0.031686444 0.10674581 0.0850602
0001c0 4c fc 68 3d f0 d5 2a 3e 09 7a 89 bd 20 cb c5 bd
       0.056881234 0.16683173 -0.067127295 -0.09657884
0001d0 7d 15 ca 3c 5e e8 4e be 6d 31 e8 bd 0d 1e 22 bd
       0.02466845 -0.20205829 -0.11337552 -0.03957944
0001e0 6f 83 0e 3d da 4f 07 3e 76 8e 87 3d 2e 91 53 bd
       0.034793314 0.13214055 0.06618969 -0.051652126
0001f0 cc 44 c5 bc 46 25 78 3d 8a da 0c bd fb cb 04 3e
       -0.024080656 0.06058242 -0.034388103 0.12968437
000200 12 b2 88 3e d0 0f 81 be 84 f6 09 3e ab 8b 8f 3d
       0.26698357 -0.25207376 0.13472944 0.070090614
000210 16 9c 7c 3e 95 4b 97 be 1b 9a a5 3d 78 71 6a bd
       0.24668917 -0.29549852 0.08086034 -0.05723712
000220 18 1b 36 be 93 b5 44 3e 6b 6e 67 be cf 03 f7 bc
       -0.17783773 0.1920989 -0.22600715 -0.030153183
000230 db ae 7f be e5 cc 45 3e fc e6 89 be c4 04 04 3d
       -0.24969046 0.19316442 -0.2693404 0.032231107
000240 8d 38 8f 3e 5b 83 44 be cf c1 4e 3e 67 a5 84 3d
       0.27972832 -0.19190733 0.2019112 0.064768605
000250 c5 b4 4e 3e a8 bd 13 bd f1 66 d0 3d 0d 0a 93 be
       0.20186146 -0.036069542 0.101758845 -0.28718606
000260 24 1f 52 3e 3c b8 9d 3e e0 c9 cc 3d b7 be 5b be
       0.20519692 0.30804622 0.09999442 -0.2145947
000270 9f a3 2e 3e 25 17 71 3d 0a 7f 1d 3e d6 64 aa 3e
       0.17054604 0.058859963 0.15380493 0.33280057
000280 e7 37 49 be c7 a6 75 bc 25 c0 02 bc 30 92 69 3d
       -0.19650231 -0.014993376 -0.007980381 0.05702418
000290 3c 14 c6 bd 47 af a6 3e 75 e6 60 be 00 d0 c9 3c
       -0.09671828 0.325556 -0.21962912 0.024635315
0002a0 9a 10 37 3e b2 aa 4e 3e c0 2d 98 bc 1f a7 79 be
       0.17877427 0.20182303 -0.018576503 -0.24380158
0002b0 ad 8b 06 be 81 11 29 3e 18 f7 8a be 9e db 10 bc
       -0.1313922 0.16510583 -0.27141643 -0.008841423
0002c0 ae 9b 2c 3e 50 7f 41 be a3 f5 c8 bd d8 cb 62 be
       0.16856262 -0.18896222 -0.098124765 -0.22148073
0002d0 32 84 87 bd 02 c2 c9 3d 17 ab d9 3c ee 83 e2 bd
       -0.06617011 0.09851457 0.02657084 -0.1106032
0002e0 99 05 c9 3d 28 58 01 be 89 00 63 3e 05 91 76 3e
       0.09815521 -0.12631285 0.22168173 0.24078758
0002f0 30 9c dc 3c ee 5f 17 3e e4 93 16 3e 4a a7 02 3e
       0.026929945 0.14782688 0.14704853 0.12759128

layers.4.bias f4 [3]
000000 e8 32 38 3d 34 44 95 3d 2d 81 77 be
       0.044970423 0.07288399 -0.2417037
